{"architecture":{"class_name":"Functional","config":{"name":"sequential_103","trainable":true,"layers":[{"module":"keras.layers","class_name":"InputLayer","config":{"batch_input_shape":[null,40,4],"dtype":"float32","sparse":false,"ragged":false,"name":"input_1"},"registered_name":null,"name":"input_1","inbound_nodes":[]},{"module":"keras.layers","class_name":"Dense","config":{"name":"dense_283","trainable":true,"dtype":"float32","units":20,"activation":"tanh","use_bias":true,"kernel_initializer":{"module":"keras.initializers","class_name":"GlorotUniform","config":{"seed":null},"registered_name":null},"bias_initializer":{"module":"keras.initializers","class_name":"Zeros","config":{},"registered_name":null},"kernel_regularizer":null,"bias_regularizer":null,"activity_regularizer":null,"kernel_constraint":null,"bias_constraint":null},"registered_name":null,"build_config":{"input_shape":[null,40,4]},"name":"dense_283","inbound_nodes":[[["input_1",0,0,{}]]]},{"module":"keras.layers","class_name":"LSTM","config":{"name":"lstm_112","trainable":true,"dtype":"float32","return_sequences":false,"return_state":false,"go_backwards":false,"stateful":false,"unroll":false,"time_major":false,"units":5,"activation":"tanh","recurrent_activation":"sigmoid","use_bias":true,"kernel_initializer":{"module":"keras.initializers","class_name":"RandomNormal","config":{"mean":0.0,"stddev":0.05,"seed":null},"registered_name":null},"recurrent_initializer":{"module":"keras.initializers","class_name":"Orthogonal","config":{"gain":1.0,"seed":null},"registered_name":null},"bias_initializer":{"module":"keras.initializers","class_name":"Zeros","config":{},"registered_name":null},"unit_forget_bias":true,"kernel_regularizer":{"module":"keras.regularizers","class_name":"L1L2","config":{"l1":0.0,"l2":0.0},"registered_name":null},"recurrent_regularizer":null,"bias_regularizer":null,"activity_regularizer":null,"kernel_constraint":null,"recurrent_constraint":null,"bias_constraint":null,"dropout":0.0,"recurrent_dropout":0.0,"implementation":2},"registered_name":null,"build_config":{"input_shape":[null,40,20]},"name":"lstm_112","inbound_nodes":[[["dense_283",0,0,{}]]]},{"module":"keras.layers","class_name":"Activation","config":{"name":"activation_112","trainable":true,"dtype":"float32","activation":"tanh"},"registered_name":null,"build_config":{"input_shape":[null,5]},"name":"activation_112","inbound_nodes":[[["lstm_112",0,0,{}]]]},{"module":"keras.layers","class_name":"Dense","config":{"name":"dense_284","trainable":true,"dtype":"float32","units":10,"activation":"tanh","use_bias":true,"kernel_initializer":{"module":"keras.initializers","class_name":"GlorotUniform","config":{"seed":null},"registered_name":null},"bias_initializer":{"module":"keras.initializers","class_name":"Zeros","config":{},"registered_name":null},"kernel_regularizer":null,"bias_regularizer":null,"activity_regularizer":null,"kernel_constraint":null,"bias_constraint":null},"registered_name":null,"build_config":{"input_shape":[null,5]},"name":"dense_284","inbound_nodes":[[["activation_112",0,0,{}]]]},{"module":"keras.layers","class_name":"Dense","config":{"name":"dense_285","trainable":true,"dtype":"float32","units":1,"activation":"relu","use_bias":true,"kernel_initializer":{"module":"keras.initializers","class_name":"GlorotUniform","config":{"seed":null},"registered_name":null},"bias_initializer":{"module":"keras.initializers","class_name":"Zeros","config":{},"registered_name":null},"kernel_regularizer":null,"bias_regularizer":null,"activity_regularizer":null,"kernel_constraint":null,"bias_constraint":null},"registered_name":null,"build_config":{"input_shape":[null,10]},"name":"dense_285","inbound_nodes":[[["dense_284",0,0,{}]]]}],"input_layers":[["input_1",0,0]],"output_layers":[["dense_285",0,0]]},"keras_version":"2.13.1","backend":"tensorflow"},"image_data_format":"channels_last","input_shapes":[[40,4]],"output_shapes":[[1]],"tests":[{"inputs":[{"shape":[40,4],"values":["…"]}],"outputs":[{"shape":[1],"values":["6OGOQg=="]}]}],"trainable_params":{"dense_283":{"weights":["…"],"bias":["OQKvvk1iQL9LFTU/izbcvJhFGj/orF2+7/tqvlTNu71Ig5q+lkuyPQO4Uz+gkLQ+g6GavJT6AT+WRDG9DL39PjXDtb7ybCu+PSkNP3e0mr4="]},"lstm_112":{"weights":["…","…","pj+nPoiVjL3Gd6u+z8lXvRX2oT7jVNQ+OvHUPQSelD3VzBi+dqGrPS1bOz7AZc09V7/1vbi3gD6I0tM+6bX0PQ=="],"recurrent_weights":["…"],"bias":["pqTnvhS+Eb9NtQa/J1nzvsesEL+XILE/SAy3PxvhrD8KEaA/vVGYP8lCaryx5x0+54qLPfnQPTwXP4W91vwFPsS2mj0vw1i3gehgvjKLFT8="]},"dense_284":{"weights":["…"],"bias":["9PCYvnqGnz97CES/WPM0PytxAj8TSqW+pRQsv3546TzAiK4+XuUmvw=="]},"dense_285":{"weights":["J0A+wcidGkH4kxvBG/0qQYFxLEFktivBzeA4wW/8L0GR8zhBX+4kwQ=="],"bias":["plcXQQ=="]}},"hash":"1fd1d8839d49a58aa54bd6c3e9343d8cf76a420c1ca30f01f3a0d7905333a9ad"}